FRIED-Net/pretrained_models/cai-1/N16K1.pth (torch, 950855 bytes, 14 tensors)

encoder.fc1.weight f4 [100, 1, 3]
000000 36 21 4a be 68 3e 1b 3e a0 3e 4e bd c4 d2 8e be
       -0.19739231 0.15160525 -0.050352693 -0.27895176
000010 30 da 84 be 86 6b 19 3e 7f 86 8b bd 63 4b 1f be
       -0.25947714 0.14982423 -0.068127625 -0.15556102
000020 f2 3e 2d be 40 d8 11 3e 0e cc 0f be cc 52 9d bb
       -0.16918543 0.14242649 -0.14042684 -0.00480113
000030 ed 06 c1 bd 93 c7 e2 be 9c 61 4e 3e ad 5f 00 bf
       -0.09425149 -0.44292888 0.20154423 -0.5014599
000040 a1 eb 60 3e ed 7e 03 bf 09 fa 87 bc 62 1b 0c bf
       0.21964885 -0.5136555 -0.016598718 -0.5472928
000050 75 ef 0f bf bb 23 b5 3e 51 ab e0 be 3f 81 e3 be
       -0.5622476 0.35378823 -0.43880704 -0.44434544
000060 e2 9e f6 bd e0 8f 7e bd df b9 3d 3e 9b db c3 bd
       -0.12042023 -0.06214893 0.18527935 -0.09563371
000070 47 e6 40 be 09 23 50 3e 20 20 b8 3e eb 17 a1 be
       -0.18837844 0.20325865 0.3596201 -0.3146356
000080 5d 0c 2b 3e 12 43 09 3f 24 42 d4 3e 76 a9 0c 3f
       0.16703935 0.53617966 0.4145671 0.54946077
000090 7e 9d 0c be dd 76 01 3e 1f aa 1c be 21 a9 d3 3d
       -0.13731954 0.12642999 -0.15299271 0.10334993
0000a0 5d d9 c3 bd 71 86 14 bf 79 7b 03 be f5 49 0b 3f
       -0.09562943 -0.5801764 -0.1284007 0.54409724
0000b0 3f ce 00 3f f0 71 0e 3e 5c 91 f2 3e 1d ea 09 bf
       0.50314707 0.13910651 0.47376525 -0.53872854
0000c0 84 5a 25 3e cc 9e 15 be 23 0d 0f 3f d5 52 a6 3e
       0.1614781 -0.14611357 0.5587942 0.3248507
0000d0 a7 63 e9 3e e4 0b 8d 3e ad 66 91 be 7c 74 c6 be
       0.4558384 0.27548134 -0.28398648 -0.38760746
0000e0 62 b0 0c bf f3 87 38 3e 23 d1 cc 3e 9c 1b e0 3e
       -0.5495664 0.1802061 0.4000331 0.43771064
0000f0 3f b7 1a 3e b3 a3 2b be 0c cd 46 3c bc 64 0e bf
       0.15108965 -0.16761665 0.012133848 -0.5562246
000100 43 08 42 3e f4 5d 84 3d 4a 9b f2 be d1 04 96 bd
       0.18948464 0.06463233 -0.473841 -0.073251374
000110 0f 55 22 3e e4 6b 0b 3d df 73 ce be 05 ee 71 bd
       0.1585276 0.03403844 -0.40322778 -0.059064884
000120 14 e0 44 3e 89 5d 1a 3d bf cd fe 3e f7 91 ba 3e
       0.19226104 0.03768686 0.49766347 0.36439487
000130 f6 25 f8 be cf 07 12 3e 94 f8 44 be 98 6c 29 3e
       -0.48466462 0.14260791 -0.1923545 0.16545331
000140 4e 6e 7e 3e 63 01 cd be 8e 47 2d 3e 81 e0 b5 3e
       0.24846765 -0.4004012 0.16921827 0.35522845
000150 d7 68 11 bf 95 e7 27 be 7a 3c 99 be bf 9e ca 3e
       -0.568006 -0.16396935 -0.29928952 0.3957424
000160 70 67 bd 3e 19 a5 17 bd fa d5 bb be 1e b9 10 bf
       0.3699298 -0.037022684 -0.3668669 -0.56532466
000170 16 07 02 bf 7f f1 13 be 92 9d 80 3e 59 ca 0f bf
       -0.5079206 -0.14447592 0.25120217 -0.56168133
000180 90 c5 1d 3e b5 bd 91 3e f2 ef 84 be a1 d0 0a 3f
       0.15407395 0.28465047 -0.25964314 0.5422459
000190 e9 a7 0b bf 03 94 f6 3e 91 9d d7 bd 91 ab 87 3e
       -0.54553086 0.481598 -0.105281 0.26498082
0001a0 67 a7 8a 3d 69 b6 f0 3d 40 f3 92 3c 12 63 f9 bd
       0.06770211 0.11753542 0.017938256 -0.12177099
0001b0 ae 60 10 bf c3 f5 8e bc c1 b0 e5 3e 4e a7 68 3d
       -0.5639752 -0.017451173 0.44861415 0.05680018
0001c0 12 bc fb 3e c2 c9 aa 3e a3 b6 a8 be 64 11 0d 3e
       0.49166924 0.33357054 -0.3295184 0.13776165
0001d0 b7 5a 46 3e 2e f0 b5 3e 6b 8c b6 be 33 4e 2f bd
       0.19370542 0.35534805 -0.35654005 -0.042799186
0001e0 a3 ed 0a 3c 02 b5 2e be 4a 91 dd 3e c1 08 07 bf
       0.008479509 -0.17061237 0.4327491 -0.5274773
0001f0 e0 76 09 bf d4 bc 86 bd 82 d8 e5 3e 1b 0b 37 be
       -0.53697014 -0.06578985 0.44891745 -0.1787533
000200 ae 2c b4 be 35 71 24 bc 2b eb ed bd 83 fd a8 be
       -0.35190338 -0.010036756 -0.1161712 -0.33005914
000210 da f1 8d be d9 59 6e bd 43 b9 16 3d bd 74 dc bd
       -0.2772358 -0.058191154 0.036797773 -0.107644536
000220 11 76 f0 3e 26 5d 6b be 8e 8c e6 3d 01 08 bf 3e
       0.46965078 -0.22984752 0.112572774 0.37310794
000230 a0 9d 0b 3f 11 a3 01 bf e5 2c c4 3e ad a2 65 3e
       0.5453739 -0.50639445 0.38315502 0.22425337
000240 56 40 e8 3e 6b 00 ec 3e c8 43 9f 3e bd ab 24 be
       0.45361584 0.4609407 0.311064 -0.16081138
000250 42 b3 a1 be c4 30 e2 bd 44 63 e6 3d e8 45 a6 3e
       -0.31582075 -0.110444576 0.11249402 0.3247521
000260 70 a2 ee bc a4 83 69 be f2 db dc 3e 8c 7d 90 3e
       -0.02913019 -0.22804123 0.43136555 0.28220785
000270 1a 17 ce bd 2e 66 0f 3f 26 a2 cc 3e 66 e1 03 bf
       -0.10063 0.5601529 0.3996746 -0.51515806
000280 0b 84 e7 be 3c fc dc be 1b 7b cc bd 28 ce 0e bf
       -0.45217928 -0.4316119 -0.09984418 -0.5578332
000290 2f 49 09 3f 86 c4 99 3e f1 ef df be 6b c9 ef 3d
       0.53627294 0.30032748 -0.43737748 0.11708339
0002a0 40 5c ef 3e a6 79 42 3d fe 9d 87 3e 5b dc ec 3e
       0.4675007 0.047479294 0.26487726 0.46261868
0002b0 de 09 f3 be ce 1f 4f 3d 76 b0 df 3d c6 1d 7d be
       -0.47468466 0.05056744 0.10922329 -0.24718389
0002c0 9a 4d 31 3e 4e cd b0 be 14 39 9b 3e 3b 9b 14 be
       0.17314759 -0.34531635 0.30316985 -0.1451234
0002d0 b1 50 7b be 7f d8 d3 3e 4f fa 03 3f aa b0 a1 be
       -0.245425 0.4137611 0.51553816 -0.31580096
0002e0 10 16 e4 be d1 81 75 3e 05 ce 40 3d 88 fe 88 be
       -0.44548082 0.23975302 0.047071476 -0.26756692
0002f0 e7 cd b1 3e 00 39 87 be e7 4e 06 3e 0f 7a 06 3f
       0.34727404 -0.26410675 0.13116036 0.52529997
000300 9c d2 4d be c7 30 43 be 22 1e 9c 3e 84 ab e9 3e
       -0.20099872 -0.19061576 0.3049174 0.4563867
000310 29 03 d9 3e 0a f1 ca 3e d6 43 97 3d ed 1e b3 be
       0.42385224 0.39637023 0.073859856 -0.34984532
000320 74 d5 d4 be 63 0f b6 3d 5d 71 fb 3e 52 10 a2 be
       -0.41569102 0.088896535 0.49109927 -0.31653076
000330 d5 67 68 3e 92 03 88 be 16 7d fc 3e 64 5b 77 3e
       0.22695859 -0.26565224 0.49314183 0.24155957
000340 18 21 82 3d c4 e5 c8 bd e1 a5 43 be 44 2f 94 be
       0.063539684 -0.09809449 -0.19106247 -0.2894231
000350 81 17 62 be e5 9a 33 3d 3a 7f 8d be d8 1d a2 3e
       -0.22079279 0.04384889 -0.2763613 0.31663394
000360 a1 52 a9 be 40 2d cf 3d ea 06 66 3e 82 18 b6 bc
       -0.33070853 0.10116053 0.22463575 -0.022228483
000370 81 ed ee 3d 0a a9 c3 be 8c c6 11 3d 11 2a 3e 3d
       0.11666394 -0.38214904 0.03558974 0.046426836
000380 8e b3 0a 3f 97 d2 12 3e ed dc af be 55 5b e5 bc
       0.5418023 0.14338146 -0.3434824 -0.027997652
000390 2b 88 fa 3e 42 ce 86 be 89 24 92 be 4c 72 b1 bb
       0.48932013 -0.26329237 -0.285435 -0.0054152366
0003a0 7b 53 d2 3e bb 53 8e 3d ad 3f cf 3e f6 bd 57 be
       0.41079316 0.06949564 0.40478268 -0.21068558
0003b0 8e 7b 72 be e0 58 99 3d bd 6e 0b bf 21 82 ce be
       -0.23679945 0.07487655 -0.5446585 -0.40333655
0003c0 d8 68 21 be dd 59 e0 bd eb 85 58 3e b4 5d d8 be
       -0.15762651 -0.1095464 0.21144836 -0.4225899
0003d0 18 4a 12 bf 21 b7 0e bf a7 41 ba 3e dc d5 ee 3e
       -0.5714431 -0.5574818 0.36378214 0.46647537
0003e0 d6 93 14 3e 98 51 d2 be 32 fc 07 bf 03 ec 4e be
       0.1450952 -0.41077876 -0.53119195 -0.20207219
0003f0 ce 9e 2c be 11 6b 24 3d 94 cb 2b be 8e 36 11 3f
       -0.16857454 0.04014117 -0.16776878 0.5672387

encoder.fc1.bias f4 [100]
000000 bf 83 05 bf 6d b6 18 3e 15 2b 9e be a9 24 1f 3c
       -0.52154154 0.1491334 -0.30892244 0.00971333
000010 52 c0 fd be cc a6 83 3e 5c 14 bb be 39 41 69 be
       -0.4956079 0.25713193 -0.3653897 -0.22778787
000020 3e 87 68 be 00 53 e2 bd 02 66 3b be 72 75 e8 be
       -0.22707841 -0.11050987 -0.18300632 -0.45402104
000030 52 b6 b5 3e 2e c4 00 bd 1d ab 26 be 3a ec 92 3e
       0.35490662 -0.03143709 -0.16276212 0.28695852
000040 03 73 09 bf c8 06 c2 3e 51 62 04 3f 47 ed 7e be
       -0.5369112 0.378958 0.5171252 -0.24895202
000050 1a e4 16 3f 21 49 af be 1f e0 07 bd 64 f9 92 3e
       0.58941805 -0.3423548 -0.033172723 0.28705895
000060 0b d6 53 bd e1 df e2 be 7b b9 0c be 40 68 1f 3e
       -0.0517178 -0.4431143 -0.1374263 0.15567112
000070 c9 7d c6 bd f9 ad 41 3e be e2 93 be 0c 05 0b 3f
       -0.0969196 0.18914022 -0.28883928 0.54304576
000080 a3 f3 a3 3e d8 77 f3 ba f4 06 a8 be 18 e4 56 3e
       0.32021818 -0.0018575145 -0.32817805 0.20985448
000090 ec a6 8e be 7f a0 13 3d 6a 31 00 bf 7c cd b4 3e
       -0.27861726 0.036041733 -0.500754 0.35313022
0000a0 e9 38 9c be ab 07 a9 3d dd 91 bc 3e 02 b6 8b be
       -0.3051217 0.08253416 0.36830035 -0.27287298
0000b0 a3 f4 01 3f 7f 52 a8 be 8f 50 5b be 23 8c db 3e
       0.5076391 -0.3287544 -0.2141745 0.42880353
0000c0 ff 6c 6d 3e 7c 53 3c 3e 09 b1 fa 3e 5f a5 fb be
       0.2318611 0.18391222 0.48963192 -0.49149606
0000d0 95 3d f4 bd 0c 93 6f 3d 4a 32 bf 3e 78 54 13 3f
       -0.11925808 0.058489844 0.37343055 0.57550764
0000e0 50 e0 58 3e 9a 52 08 bf 52 24 d7 3d 62 b0 7a 3e
       0.21179318 -0.5325104 0.105049744 0.24481347
0000f0 bc 18 f1 3e 16 13 6a 3e 6b 87 4c 3d b2 ee f9 3d
       0.47089183 0.22858843 0.049933832 0.12203731
000100 b4 b9 72 3e 4f 2a 75 3e 03 12 2b be 79 a8 01 3f
       0.23703653 0.2394192 -0.1670609 0.50647694
000110 bf 45 a8 3e 46 e4 cf be 7a 8d 97 3d 70 1a e5 be
       0.32865712 -0.40603846 0.074000314 -0.44746733
000120 63 a3 0c 3f 01 71 a3 be 12 94 f6 3e 5e 7d 8d 3e
       0.5493681 -0.31922153 0.48159844 0.2763471
000130 b8 b4 27 3f 32 14 d6 bc 2e 54 0d 3f e8 65 cd 3e
       0.6551013 -0.026132677 0.55206573 0.4011681
000140 ee 05 14 bf 8f c4 03 bf 13 3e 24 be 45 90 20 be
       -0.5782155 -0.514718 -0.16039304 -0.15680034
000150 c6 06 9c be 86 30 26 be 22 1e 1f be ac a2 1b 3e
       -0.30473918 -0.16229448 -0.15538839 0.15198773
000160 02 bd 24 be 8b 73 cf 3e a9 2b 05 bf b9 d7 ba be
       -0.16087726 0.4051784 -0.52019745 -0.36492708
000170 24 61 92 3e 03 c0 d6 3e 18 f5 85 be d9 42 37 3d
       0.28589737 0.41943368 -0.26163554 0.044741485
000180 29 b3 08 bf 66 f9 df 3e cc 42 a1 3e 79 65 08 bf
       -0.53398377 0.43744963 0.31496274 -0.53279835

encoder.fc2.weight f4 [100, 100, 3]
000000 2f a1 83 bb e9 03 44 3c 12 45 26 3d 8e a8 8f bd
       -0.0040170173 0.011963823 0.040593214 -0.07014571
000010 79 c2 c4 bc cb c4 de bc 3d 87 68 bc b9 92 0a bd
       -0.024018513 -0.027193448 -0.0141924 -0.033831332
000020 44 22 54 bd 0a 78 73 3d 1b 27 cb 3d 17 02 4e 3d
       -0.05179049 0.05944065 0.09919568 0.05029496
000030 e0 90 42 bd 0f c8 bd bc bc aa ac bc ba 79 45 3c
       -0.047501445 -0.023166684 -0.021077506 0.012052948
000040 e4 5b 3e bd 41 fd ed 3c e0 70 08 3d 79 d1 5b bd
       -0.046474352 0.029051425 0.03331077 -0.053666566
000050 58 86 71 bc 2e cd a1 bb db f9 b3 3d c0 30 83 3d
       -0.014741503 -0.0049377894 0.087878905 0.06405783
000060 f1 c8 70 bc 1e 02 05 bd 25 48 3b 3d 1f a1 f0 3c
       -0.014696346 -0.032472722 0.0457231 0.029373704
000070 4c ba 0e bd 63 9b 15 3d cc 13 c5 3c 4f 48 00 bd
       -0.034845635 0.03652514 0.024057291 -0.03131896
000080 cf 02 b6 bb 67 99 bd 3b af ea 98 3c 7f 7d 9c 3c
       -0.005554534 0.0057861093 0.018666593 0.01910281
000090 8b e3 df bb e3 c1 d1 3c b3 4a 67 3d dc 72 24 bd
       -0.006832545 0.025605148 0.056467723 -0.0401486
0000a0 20 e4 01 3c 62 ee ed bb e0 73 3c bd a5 3c 64 bd
       0.007927924 -0.0072610835 -0.046008945 -0.055721898
0000b0 1a b5 36 3d 38 69 8f 3d 40 7f 1b bd b9 cf 46 3c
       0.044606306 0.07002491 -0.037963152 0.012134486
0000c0 d2 7b aa 3c e0 80 90 bc 05 9d 28 3c 85 a0 39 bc
       0.020810995 -0.017639577 0.010291343 -0.011329775
0000d0 49 e1 a7 bc c5 b9 58 bd e7 96 6d 3c ba 9e 49 3d
       -0.020493167 -0.05291154 0.01450131 0.04922364
0000e0 a1 4c 31 bb ce 57 0d bd 73 04 08 3c 75 c7 3d bd
       -0.002705373 -0.034507565 0.008301842 -0.046332795
0000f0 87 b2 6e 3d f5 91 e9 3d cf e8 ed 3d d9 5f 99 bc
       0.058275726 0.11404792 0.1161667 -0.018722462
000100 ab 34 21 bd 56 26 49 3d 9d 59 4a bd 8a 39 51 3d
       -0.03935687 0.049108826 -0.049401868 0.051080264
000110 12 ae 0e 3d d5 2c a0 bc 33 c3 2f 3d c5 2f 1d bc
       0.034833975 -0.019552628 0.042910766 -0.009593909
000120 de 56 fd 3b c4 e3 f9 bb ec ab d8 3b eb 2e d9 bc
       0.0077313026 -0.0076260287 0.0066122916 -0.02651163
000130 31 c9 37 3b 7b d2 33 3d f0 2d 50 3d b2 e6 01 3d
       0.0028043503 0.0439019 0.05082506 0.03171415
000140 90 ed e5 3b 11 f5 91 bc c9 67 02 3d b3 91 18 bd
       0.007016845 -0.017817052 0.03183726 -0.037248325
000150 20 15 92 bc bf c7 b0 bc a9 f7 1e 3d 72 33 07 3d
       -0.017832339 -0.021579621 0.038810406 0.033008046
000160 5f 58 7e 3c 95 f7 63 bd 6b 7c 19 3d 31 65 32 bd
       0.015523999 -0.055656034 0.03747217 -0.043553535
000170 52 dd f7 bc 20 6e 5e 3d 66 9b 7d bc 6c 9e 7f bc
       -0.030256901 0.054304242 -0.015478944 -0.015601736
000180 19 e8 f1 3c 79 f4 08 3d 72 df 3c 3d d0 40 4c bb
       0.029529618 0.033436272 0.04611153 -0.003116656
000190 51 5e 82 3d 7e 8b e6 3a 80 87 c7 bb 9f 5e 00 bd
       0.06365646 0.0017589179 -0.006089151 -0.031340238
0001a0 95 6f 85 bd 04 37 32 bc a9 ab 08 bd f3 fc 21 bd
       -0.06515423 -0.010877375 -0.033366833 -0.03954787
0001b0 c7 18 d4 bc 37 3a 03 3d 16 84 c1 3c d4 7a 33 3d
       -0.025890721 0.03203794 0.023622554 0.04381831
0001c0 43 b3 2a 3d 0c 80 c2 3b f4 b8 29 bc 97 39 e3 3c
       0.041674864 0.0059356745 -0.010359038 0.027737422
0001d0 c6 a3 6a bc 3d 0c 9a 3d 2c 31 82 3d e9 e5 b6 3d
       -0.014321273 0.075218655 0.06357035 0.08930571
0001e0 c7 0b d4 bb 21 c4 6a bd 86 b9 ed bc 47 25 d4 3c
       -0.0064711305 -0.05731595 -0.029019129 0.025896681
0001f0 04 14 69 bc 7e 8f 21 3d 1b 7e b8 3d 39 e6 cb 3c
       -0.0142259635 0.039443485 0.09008428 0.024890052
000200 24 84 d8 3c 1c 0f 9c bc 27 cc 56 bd 4e 02 29 3d
       0.026430197 -0.019050173 -0.05244079 0.041261964
000210 aa 9b 19 bd 0b 33 a3 bc 93 e9 08 3c 00 6c 40 bd
       -0.03750197 -0.0199218 0.00835647 -0.046977997
000220 32 b3 8d 3b 2a e7 0e bd cc 60 82 3d 90 b0 a5 bc
       0.0043243403 -0.034888424 0.06366119 -0.020225793
000230 71 8c e3 bb 43 32 0c bd f6 e5 6d bc 8d 7e a3 3d
       -0.006944232 -0.03422762 -0.014520159 0.07983122
000240 c8 30 f9 bb 6e dd 37 bc 6e e4 41 3d 94 5f 36 bd
       -0.007604692 -0.011222227 0.04733699 -0.044524744
000250 7d 88 45 3d 68 06 c1 3c c7 ac 97 3c 83 31 42 bc
       0.04822587 0.023562625 0.018515004 -0.011852625
000260 2c 26 5a bd c6 25 db bc 28 4e 3b 3d 2a d7 3e 3d
       -0.05325906 -0.02675141 0.045728832 0.046591915
000270 4e c8 e0 bb 2f 6c f3 bb af 0d 4a bd 6f 8e 8b 3c
       -0.0068598157 -0.007428668 -0.049329456 0.017035691
000280 1c a4 55 3d 28 14 06 3d 6c 09 be bc 0d 94 2b 3b
       0.05215846 0.032734066 -0.023197852 0.0026180774
000290 f3 dd 3e bb e9 35 a8 3d f2 be c9 3d 04 e8 ae 3d
       -0.0029123991 0.082134075 0.09850873 0.08540347
0002a0 dc 2e 55 3c 00 a1 bd bc 3f 84 1b bc f3 c9 dd bb
       0.01301166 -0.02314806 -0.009491979 -0.006768459
0002b0 eb ef 76 3d 89 34 e7 bc b9 e4 3e 3d f0 f3 2a 3d
       0.060287397 -0.028223293 0.046604846 0.041736543
0002c0 54 f6 85 bc b4 20 9f 3d 18 92 58 bb 98 d7 fc 3c
       -0.01635281 0.077699095 -0.0033046063 0.030864522
0002d0 87 33 76 3d f0 65 87 3c 59 53 27 bc 7d 8a e0 3c
       0.060107734 0.0165281 -0.010212743 0.027409786
0002e0 26 34 05 3c 77 52 b4 3c 8b 78 d6 bc 09 01 2a bd
       0.008130109 0.022011979 -0.026180526 -0.041504893
0002f0 e9 a5 eb 3a 08 ce 44 bd a5 6d 83 bc 57 35 08 3d
       0.0017978522 -0.04804805 -0.016043494 0.033253994
000300 45 78 42 3c 8c b0 c5 bc f5 e6 2b bd 25 40 43 3d
       0.011869495 -0.024132036 -0.041968305 0.047668595
000310 b7 14 e4 bc 59 9a 59 bd c5 82 14 3d 71 1f 87 3d
       -0.027841909 -0.053125713 0.036257524 0.06597794
000320 fc b8 8e 3d 4e 30 40 3d 08 e6 3d bd 62 e1 ba 3c
       0.06968877 0.046921067 -0.046361953 0.022812549
000330 35 ce 11 3d f7 0c 6c 3d 23 6f b6 bc 63 ff 80 bc
       0.035597045 0.05762955 -0.022269791 -0.015746778
000340 b3 e6 30 3c db 0e 15 3c 54 13 04 3b 36 d4 72 3d
       0.0107971905 0.00909778 0.0020153122 0.05928441
000350 ed 25 fd 3c 4e 5d 86 3c 98 4c 18 3d 27 a7 73 3d
       0.030901873 0.016401913 0.03718242 0.05948558
000360 87 d2 4d 3d 60 44 86 3d 6e 4c 7c 3c a3 e9 7a 3d
       0.050249603 0.0655601 0.015399082 0.06125797
000370 64 e3 a1 bc 88 63 25 3d 29 a4 40 bd 92 37 d9 bc
       -0.019761749 0.040378124 -0.047031555 -0.026515756
000380 2e 8f 41 bd 4b 1a 14 3d 99 59 84 bc 49 9d aa bb
       -0.047255687 0.036157887 -0.016156005 -0.005206738
000390 fc cf 9b 3d 86 33 83 3d 8b 8f 47 3d 27 26 1d 3d
       0.07608029 0.06406312 0.048720878 0.038366463
0003a0 4f 83 3d 3d a8 ac 37 bd cf 44 49 3d e8 80 88 3d
       0.046267804 -0.044842392 0.049137887 0.06665212
0003b0 a0 8c 39 bd fc ad 8a bc 53 de aa 3c b2 9a 9f 3c
       -0.045300126 -0.016928665 0.020857966 0.019482944
0003c0 54 bd 8c bc 3c 79 19 bd ab 86 aa bb 7a 40 1a bc
       -0.017180122 -0.037469134 -0.005204042 -0.0094147865
0003d0 e1 e3 dc 3c 63 23 1f 3d 96 a2 6a 3d 54 c0 8c bc
       0.02696413 0.038852107 0.05728396 -0.017181553
0003e0 21 8c 9f 3c 33 16 38 bd 50 fa 33 bc 19 99 31 bd
       0.019475998 -0.044943046 -0.010984972 -0.043358896
0003f0 62 fa 6e bc fe c5 0c bd 9c df 4d bd 6b 43 1f bd
       -0.014586063 -0.034368508 -0.05026208 -0.038882654

encoder.fc2.bias f4 [100]
000000 48 02 0b 3e 57 6a 06 3d 65 6c 54 3c 8e 7e 21 3d
       0.13575089 0.032816257 0.012965296 0.039427333
000010 49 a8 59 bc 07 93 a0 3d a0 d8 be bc 24 f9 bc bc
       -0.013284751 0.07840543 -0.023296654 -0.023068018
000020 95 21 a9 bc 4a da c3 bc ca dd f1 bc 3b 35 60 3d
       -0.020645896 -0.0239078 -0.029524703 0.054738265
000030 1a 10 5c 3d 33 18 d6 bb 8d de e2 bc 59 1e b8 3b
       0.053726293 -0.0065336465 -0.027694011 0.005618852
000040 29 f9 27 3d 15 0d 14 bd 9f bf 57 3c 3f 2d 20 ba
       0.041009102 -0.03614529 0.013168245 -0.0006110258
000050 1f 47 07 bc f3 be 5c bc 22 2f c1 3c e4 b0 a6 3c
       -0.008256703 -0.01347326 0.023582045 0.02034802
000060 37 22 6d bc 11 63 1e 3c 22 9b 83 3d 5a 7b d9 bc
       -0.0144734895 0.009667174 0.064260736 -0.026548076
000070 74 e2 b2 3d 46 0d 73 3d 69 2e 45 3c 8d 83 35 3d
       0.08734599 0.05933883 0.012034991 0.04431491
000080 ff 4c 3d bd aa 15 43 3b 16 b1 ef bc 38 e0 5a bd
       -0.046216007 0.0029767551 -0.029259246 -0.053436488
000090 9a 36 5f bd cd 90 c9 bc 7b 70 2a bd 47 16 74 3d
       -0.05449543 -0.02460518 -0.041611176 0.059591558
0000a0 4d e9 25 bd 0e d0 ef 3c 58 14 d1 3c f7 9f 4a bd
       -0.040505696 0.029274013 0.025522396 -0.04946896
0000b0 55 fc 1c bd ac 9e 86 3b 3c 60 07 3d 33 e0 35 bc
       -0.03832658 0.0041082706 0.03305076 -0.011100817
0000c0 d6 ec b7 3d e9 1b 30 3d 0d 2e e8 3c 25 01 9c 3c
       0.0898072 0.042995367 0.028342271 0.019043515
0000d0 7a 07 8d bc a5 06 0e 3c d9 b6 95 bb e4 a0 59 3c
       -0.01721548 0.008668576 -0.0045689163 0.013282988
0000e0 d8 13 eb bc 82 84 49 3d f9 8d fb b7 d5 b7 1f bd
       -0.028695986 0.049198635 -2.9987643e-05 -0.038993675
0000f0 77 a3 fc 3b 9d 61 0b bc 9c 7b dc 3c 19 e0 62 3d
       0.007709916 -0.00850716 0.02691441 0.055389497
000100 4d e4 9f 3c e7 91 77 bd a5 a2 5c 3d 47 91 5c bd
       0.019518042 -0.060441878 0.053866047 -0.053849485
000110 bc 29 14 3d ab cb 69 3d 8c 31 09 bd 1b 3c 91 3c
       0.036172614 0.057079 -0.033494517 0.017728856
000120 32 2a e9 bc d0 65 96 3d a2 79 db 3c ce ff 7a 3d
       -0.028462503 0.07343638 0.026791397 0.06127911
000130 6c b7 d7 3d 03 ef 2f 3d 69 19 dc 3c be 3a e0 3c
       0.10533032 0.04295255 0.026867585 0.02737176
000140 83 37 94 bb c1 02 57 3c 52 f6 8c bd 8c 50 a2 3c
       -0.004523219 0.013123215 -0.06882919 0.019813798
000150 0a 2e 88 3c 5f f0 28 3d f0 d5 65 bb d3 f1 6e bd
       0.016623516 0.04124486 -0.0035070144 -0.05833609
000160 b3 8c 42 3d 41 22 5b bd d4 3c 0c 3d de ff 23 3e
       0.047497462 -0.053499464 0.034237698 0.16015574
000170 1f 0b 18 bc e5 dc dc bc 92 cf 36 3d f3 a9 04 3d
       -0.009279995 -0.0269608 0.04463155 0.03238864
000180 05 7b 2d 3b 17 95 6a 3d a3 bb 05 bc ba 51 de 3c
       0.002647103 0.05727109 -0.008162412 0.02713858

encoder.fc3.weight f4 [100, 100, 3]
000000 fd e1 4a 3d 15 14 59 3c 20 f0 6c 3d bc 3d f0 3c
       0.049531925 0.013249417 0.05784619 0.029326312
000010 13 b3 88 bb bf f0 17 3d e0 92 32 3d 0f 1b 50 bd
       -0.004171738 0.037094828 0.043597102 -0.050807055
000020 f8 6b 08 3d b0 44 e3 bc b2 cc 20 bd 8e 2b b6 3c
       0.033306092 -0.027742714 -0.039257713 0.022237565
000030 7c ee 69 3c 5b 8e 1e bd d6 26 c4 3b d1 d5 8c 3c
       0.0142780505 -0.03870998 0.005986075 0.0171918
000040 c1 e7 18 bd b2 a2 4b bd 7a 5e 0b bd 13 0f 3e 3d
       -0.037330393 -0.049715705 -0.034025647 0.046401095
000050 5b 9d df 3c e5 4e 7b 3b 09 23 45 bd 94 0b 4c 3d
       0.027296713 0.0038346585 -0.048129115 0.04981573
000060 c5 8d 21 3d 99 e9 1e bd 81 25 a9 bb e5 d2 71 bd
       0.039441843 -0.038796995 -0.0051619415 -0.059039015
000070 a7 f4 d7 3c 0f 58 a8 3c dd 75 20 bc 8f 89 0a 3c
       0.026361777 0.020549802 -0.009793726 0.008455648
000080 de 1d 5a bd 33 42 f3 3c 22 34 b9 3c 0b 79 30 bd
       -0.05325114 0.029694652 0.022607867 -0.043084186
000090 e9 99 04 3d 9f 9e 5b bd 0b 71 ba bc 3a 0d 51 3d
       0.032373343 -0.05361807 -0.022758981 0.051038004
0000a0 c6 45 73 3c 33 71 a7 3b 7a 7d 46 bd 5b 59 89 3c
       0.014848178 0.00510993 -0.048459508 0.01676624
0000b0 c1 5e 2c bd 8e 72 fd bc d7 d4 ff 3c 17 fe c8 3c
       -0.042082552 -0.030938413 0.03122942 0.024535222
0000c0 5e 20 b2 bc 15 47 97 bc d9 af 1b 3d de ef bf bc
       -0.02174395 -0.018466512 0.0380095 -0.023429807
0000d0 f9 80 81 bb fc 6e 34 bd 9a 04 3e bd e6 ad 17 3d
       -0.0039521423 -0.044051155 -0.046391107 0.037031077
0000e0 38 b0 20 3c 56 1c 26 3d 9a be 44 bc f9 de 75 3c
       0.009807639 0.040554367 -0.012008334 0.015006774
0000f0 3e 3a 55 bc 41 ec e8 bc f9 e2 17 bc 0e 6c 8b 3c
       -0.013014374 -0.028432967 -0.009270423 0.017019298
000100 d7 13 31 bd 50 db 4a 3d b7 3b 2c 3d 92 3b c5 bc
       -0.04323181 0.04952556 0.042049136 -0.024076257
000110 12 f3 b5 3b ad f0 94 3c ed 5a e9 3c 02 5d 37 3d
       0.005552658 0.01818117 0.02848574 0.044766434
000120 8f e1 a3 3c 11 f9 23 bd bf 45 04 bd 27 65 05 3d
       0.020005016 -0.04003245 -0.032293078 0.03256717
000130 c2 ea d0 bc db 49 52 bd f5 81 ee bc 01 85 e1 3c
       -0.025502566 -0.051339965 -0.029114703 0.027529242
000140 84 40 c5 3a d7 80 e4 3c 0f 54 dd bb bf b6 29 3d
       0.0015049134 0.027893467 -0.0067544053 0.041434046
000150 e0 1e f7 3b ed 1b 6b 3d b5 60 6c 3c e4 cf e6 3c
       0.0075415224 0.05739968 0.014427354 0.028175302
000160 58 60 1c 3d 40 5c 1c 3b 54 6b 11 3d b7 ce 54 3c
       0.038177818 0.0023858696 0.035502747 0.012988738
000170 75 40 6a ba 39 ae 0c bd 4a ea 9d bc e6 f8 55 3d
       -0.00089359964 -0.03434584 -0.019276757 0.05223932
000180 36 4e 39 3d d3 b1 51 3d 51 5a 3e 3c 22 ac a6 3c
       0.045240603 0.051194977 0.011618213 0.020345751
000190 84 d6 e9 bc 7b 50 24 3d 7a b6 98 3c c0 ac f3 bc
       -0.028544672 0.040115815 0.0186417 -0.02974546
0001a0 e1 99 62 bd cb 28 85 bc 78 ac 97 bc 58 3c 0b bd
       -0.05532253 -0.016254803 -0.018514857 -0.033993095
0001b0 58 b2 73 bd 45 f7 ce bc 81 12 f1 b9 1b 54 c7 3b
       -0.059496254 -0.025264392 -0.00045980889 0.006083024
0001c0 38 12 82 bb c4 8c bc 3b f6 5e 64 b9 56 3c 87 bc
       -0.003969457 0.0057540853 -0.0002177915 -0.016508263
0001d0 f7 96 9e bb 55 03 21 bd e3 8b 04 bd 61 f3 b8 3c
       -0.0048397738 -0.03930982 -0.03235997 0.02257699
0001e0 bb f0 22 3d a3 8d 56 3d 3a 93 b8 bc 9a f1 05 ba
       0.03978036 0.05238117 -0.02253114 -0.0005109549
0001f0 78 64 18 3d 03 ba 11 3c 55 2f de 3c 73 5f a2 bc
       0.03720519 0.008894446 0.027122179 -0.019820904
000200 8e c3 a1 3c 74 ec 02 3b b7 97 d1 bc c7 4f 06 bc
       0.019746568 0.0019977363 -0.025585039 -0.008197731
000210 3a 59 0e bd b0 b3 03 3d 7a 54 31 bc e9 1f 3c bc
       -0.03475306 0.032153785 -0.010823363 -0.011482217
000220 15 5d 60 3d c0 e3 56 bd 58 dd 06 bd 40 fc d6 3c
       0.05477627 -0.052463293 -0.032925934 0.026243329
000230 8b f1 57 bd 91 c7 9f ba 33 a0 11 3d 01 b0 35 3d
       -0.052720588 -0.0012190213 0.03555317 0.044357304
000240 32 7c 22 3c b0 70 51 3d 88 74 cf 3c db 06 27 3d
       0.009917306 0.051132858 0.025324121 0.040778022
000250 48 86 07 bd aa 08 7e 3d ab c9 9b 3c 68 4a db bc
       -0.033087045 0.06201998 0.019017061 -0.026768878
000260 b0 e8 a9 3c e8 f3 3d bd 2b 21 4f 3d 1d 8a 3c bd
       0.020740837 -0.046375185 0.05056874 -0.046030153
000270 fa 77 45 bd 05 d9 2b bc 65 54 70 bd a7 c1 cc bc
       -0.04821012 -0.010488753 -0.058674235 -0.024994684
000280 04 86 0d 3d c8 f3 18 bd 36 99 cb bc b3 e5 12 bc
       0.034551635 -0.037341863 -0.02485333 -0.008965897
000290 2f f5 80 bc f7 3d 46 bd 22 bd b1 3b b6 96 3b bd
       -0.015741913 -0.048398938 0.0054241577 -0.045798026
0002a0 0f da ec 3c 06 91 01 bd 8d 79 2f bc 10 87 0e bd
       0.028912572 -0.031632446 -0.010710132 -0.034796774
0002b0 1b db 32 bd 09 7a 1a bb 6e 94 6a 3d 73 c6 68 3b
       -0.043665987 -0.0023571274 0.05727046 0.0035518676
0002c0 37 7c f5 bc bb 67 6d bb 4c d1 01 3d 6b 4f 47 3d
       -0.029966457 -0.0036225158 0.03169374 0.048659723
0002d0 87 2b d5 3b c6 6c fb 3c a6 28 2b bd b9 53 3c bd
       0.006505433 0.030691516 -0.041786812 -0.04597828
0002e0 8d 0c 0e 3c 92 fb 26 bd 3f ae 4f 3d e9 4f 1a bd
       0.0086699845 -0.04076726 0.050703283 -0.037673865
0002f0 32 bf 2d bc 39 0c 83 bc 8c a9 82 bc 8c 83 3e bd
       -0.010604667 -0.01599704 -0.015949987 -0.04651217
000300 79 7a 5e bd d5 23 17 3d 32 7a 34 3d 66 11 e6 bc
       -0.054316018 0.036899406 0.044061847 -0.028084468
000310 8c d3 3c 3c dc 9b 2f bd 0b 38 1b bd 54 0c 90 bc
       0.011525046 -0.04287325 -0.037895244 -0.017584004
000320 a5 4b cd bc 5a bd 0e bd 97 2a 23 3d 89 a8 04 3d
       -0.025060484 -0.03484855 0.03983554 0.03238729
000330 e1 aa ac 3c 5f 9f 1f bd 1a c0 25 bc 60 98 08 3d
       0.021077575 -0.038970347 -0.010116601 0.03334844
000340 bd 49 da bc 4b 74 39 bc db 5d 0d 3c b3 4d 53 bd
       -0.02664649 -0.01131923 0.008628334 -0.05158777
000350 c1 9c 52 3c ee 7c 4a bb 82 7a 8c b9 63 5b 8f 3c
       0.012854756 -0.0030897218 -0.00026794156 0.017499631
000360 d6 39 a9 3c d2 8c ad bc a4 58 e0 3c 0a 0f a5 3b
       0.020657461 -0.021185312 0.027386017 0.005037193
000370 13 fa e2 bc ad 4c b9 bc 55 6f 8e 3a 53 3b e0 3c
       -0.027707135 -0.02261957 0.001086692 0.027372038
000380 c9 74 5f bc bb 8a e4 bc 64 d3 63 bd 3e 4f a1 3c
       -0.013638684 -0.027898183 -0.05562152 0.019691106
000390 e0 63 43 3d 01 1d 4b bd 38 27 04 3c 77 04 ec 3c
       0.04770267 -0.049588207 0.008065991 0.028810723
0003a0 75 3f 88 bd 1b d8 aa bc 80 b7 61 3b 2d 3d 14 3b
       -0.066527285 -0.020855 0.003444165 0.0022619471
0003b0 0b 78 d2 bc db 68 2b 3d cb 98 7b 3c 17 22 ec bb
       -0.025692007 0.041848045 0.015356253 -0.0072062123
0003c0 13 f1 4d bd 11 95 d8 bc 6e 01 e6 bb a3 da 57 3d
       -0.050278734 -0.026438268 -0.0070192134 0.052698743
0003d0 94 ba 86 3b 53 8f 43 bc c4 cd 6b bb 3a 1e f7 bb
       0.0041115973 -0.011936027 -0.00359808 -0.007541445
0003e0 f9 ef 65 bd 1d e1 49 bd 0a 26 4a 3d 2e 67 35 3d
       -0.05613706 -0.04928695 0.049352683 0.044287853
0003f0 e2 22 cb b7 4c 0c 61 bd 36 25 85 3c c1 eb 5c 3d
       -2.421573e-05 -0.054943368 0.016253095 0.05393577

encoder.fc3.bias f4 [100]
000000 20 71 20 3d f0 d1 d1 bc 6f 36 cb 3d 7b aa a1 bc
       0.039170384 -0.025612801 0.09922492 -0.019734612
000010 cb 1c 82 bd df 99 84 bd 81 ac 2c bb c6 c9 94 3d
       -0.06353148 -0.06474661 -0.0026347938 0.07265048
000020 7f eb 5f bd 5b f8 0f bd ce de e3 bc c1 df 43 bd
       -0.054667946 -0.03514896 -0.027816202 -0.04782081
000030 ec a1 61 3b 50 f7 c4 3d 97 f8 8f 3d fe 01 f2 3c
       0.0034428788 0.096174836 0.070298366 0.029541966
000040 aa c1 09 bd 06 66 5a 3b da ea 26 3c 9e c7 cb 3c
       -0.033631958 0.003332497 0.010187829 0.024875458
000050 45 f2 4b 3d f2 1c 60 bd 0b 5a 11 3c a1 38 48 ba
       0.049791593 -0.054715104 0.008871566 -0.0007637833
000060 12 7b 7a bb c3 f6 4e bd 93 07 3b 3d 10 3a 37 bd
       -0.0038220328 -0.0505283 0.04566152 -0.044733107
000070 91 0d 63 bd 3d 1a 35 3d ee ae 8d 3d a1 a8 5f 3c
       -0.05543286 0.044214476 0.06918131 0.013651044
000080 86 a0 a0 3b c8 91 48 bc 76 2b f5 3c 00 b6 d0 3c
       0.0049019484 -0.012241788 0.02992795 0.02547741
000090 ba 6b 5c 3d fb 6c 3e 3b 29 8b 36 3b 02 80 86 3c
       0.053813674 0.0029056657 0.0027853942 0.01641846
0000a0 a7 e2 d4 3d 51 6a 6a 3d e2 e1 0d bd 0b 7d 66 bd
       0.10394793 0.057230297 -0.034639247 -0.056271594
0000b0 99 d3 17 bd f8 8d f7 3d f8 1c 2b bd e6 44 fc bb
       -0.03706703 0.12087625 -0.041775674 -0.007698643
0000c0 33 fc 87 bb dd f0 d2 3c 61 af 9a bc 25 2e ac 3c
       -0.0041499375 0.025749618 -0.018882455 0.021018097
0000d0 b7 aa 95 3d eb e1 bd 3c 0a 1a 7b bc 0f 96 57 3d
       0.07307952 0.023179015 -0.015326032 0.05263334
0000e0 e3 b4 fa 3a 13 3d 8f 3d a7 ab 60 bd a3 2f 07 bd
       0.0019127395 0.06994071 -0.0548512 -0.033004414
0000f0 a7 8a 3a 3d 54 92 26 bd 99 18 28 3d 26 45 02 3d
       0.045542385 -0.040666893 0.041039083 0.031804226
000100 e6 ab 79 3b 2d 82 98 3d 85 98 3f bd e4 b4 e3 bc
       0.0038096844 0.07446704 -0.046776313 -0.027796216
000110 43 be 5e bd 9a 80 d6 3c 24 5e 6a bd 06 00 46 bd
       -0.054380666 0.026184369 -0.057218686 -0.048339866
000120 03 1b 7a bc db 51 de bc 49 43 82 3d b5 6b d9 3a
       -0.015265229 -0.027138641 0.0636049 0.0016587885
000130 8a a4 bc bc 1e 00 25 3d 48 fb 4a bd 12 63 98 3c
       -0.023027677 0.040283315 -0.049556047 0.018601928
000140 bc 6f 37 3d 23 80 46 bc 6c 27 51 3c b3 4b 31 bd
       0.044784293 -0.012115511 0.012765747 -0.043285083
000150 a8 6a b0 3c 9a 43 07 3c 70 05 8b 3c 41 da e7 bc
       0.021535233 0.008255864 0.016970366 -0.028302314
000160 bf 22 12 3c 47 54 d9 bc 24 bb bd bb ec 49 87 bc
       0.008919417 -0.026529444 -0.005790131 -0.01651474
000170 56 24 46 bd eb d2 a7 3c 8b a5 a8 3b 09 fa 64 bc
       -0.048374496 0.020486316 0.0051466874 -0.013975629
000180 d6 91 05 3d 67 40 9b 3c 8a bd aa 3a 8a 30 11 bc
       0.032609783 0.018951608 0.0013026458 -0.00886167

encoder.fc4.weight f4 [100, 1600]
000000 c9 01 20 ba 7c 82 b5 3c 93 21 b3 bb 04 83 d3 bc
       -0.00061037816 0.022156946 -0.005466649 -0.025819309
000010 5b 8a af 3b 87 23 f2 bc 8e 39 50 bc 7c 3c 4e 39
       0.0053570694 -0.029557956 -0.012709035 0.00019668223
000020 56 68 c8 bc e4 be ec bc 1b 0f 2d bd aa a6 55 bb
       -0.024463814 -0.028899617 -0.042250734 -0.003260056
000030 51 98 04 3c 49 28 30 b8 4e 7e de bb 5a 4e 89 bc
       0.008092956 -4.199919e-05 -0.006789959 -0.016760994
000040 c5 91 8f 3c fb 5c 53 3c bc 84 d2 bc 92 54 18 bd
       0.017525563 0.012900586 -0.025698058 -0.037190028
000050 65 56 f4 bb ff 0d c2 3c 5e 04 32 bc 87 71 cb 3b
       -0.007456588 0.023688314 -0.010865299 0.006208602
000060 a6 68 07 bc f5 78 6c 3c 8b 76 f3 bb 7b 61 84 bc
       -0.008264696 0.014433135 -0.007429903 -0.016159764
000070 3b 11 70 bc 6f 00 bf bc d6 54 d5 3b a5 8f 86 3c
       -0.014652546 -0.023315636 0.0065103574 0.016425917
000080 b6 d4 e9 bc 5d 1d 97 3c 69 5d 73 3c 69 5b b2 ba
       -0.028543811 0.018446619 0.014853814 -0.0013607565
000090 4f d3 85 ba 57 bf 33 bc 37 2e 48 3c a6 00 97 39
       -0.001021007 -0.010970912 0.01221805 0.00028801447
0000a0 e5 a4 e9 bc 17 39 c8 bc cd df b7 bc 04 10 d9 ba
       -0.02852101 -0.024441285 -0.022445584 -0.0016560559
0000b0 c8 54 eb 3b 94 b2 a3 3c b7 c5 9c 3c 3c a8 81 3c
       0.0071817376 0.019982614 0.019137247 0.01582729
0000c0 fb bc a8 3a 82 86 53 3c a5 58 8d 3c 40 40 98 3c
       0.0012873703 0.012910487 0.017254183 0.018585324
0000d0 44 cf d8 3c f7 f6 e1 3c 86 0c 6d b9 ba b1 6b 3c
       0.02646602 0.027583582 -0.00022606747 0.014385635
0000e0 27 81 84 bc 7b a2 33 bc bf af 5f bc b3 93 6e 3b
       -0.016174866 -0.010964031 -0.013652741 0.0036403954
0000f0 28 77 c6 3b f8 50 aa bc ce 6c 3f bc df 22 fa bb
       0.006056685 -0.020790562 -0.011683656 -0.0076335515
000100 92 e2 89 bc c8 e2 62 bc 51 d6 12 39 84 c1 3d bc
       -0.01683167 -0.013848014 0.00014003484 -0.011581782
000110 eb da 94 bc e8 50 71 bc 7a 48 50 3c b2 ad b5 3c
       -0.018170794 -0.014728762 0.012712592 0.022177551
000120 3f 5a cf 3c 16 a5 45 bc b9 f0 ce 3c 79 89 88 3c
       0.025311587 -0.012063285 0.02526127 0.016667115
000130 55 d0 77 39 ae c1 8f 3c 90 b7 5e 3b 2e 6e b4 bb
       0.00023633365 0.017548408 0.0033983923 -0.0055062985
000140 18 aa 5a 3c f5 9f e1 3c d6 67 c7 ba 10 91 5a bc
       0.013346218 0.027542094 -0.0015213441 -0.01334025
000150 d6 00 0f bc af d2 86 bc be 51 75 3c fd cc bb bb
       -0.008728227 -0.016457884 0.014973102 -0.0057312236
000160 49 6c 32 3b 0d 4d 25 3c 79 c4 7b 3c d4 42 68 bc
       0.0027225188 0.010089171 0.015366667 -0.014176089
000170 43 88 fb 3b 6c af b5 bc 66 4f 98 bc 45 00 c4 bc
       0.007676156 -0.022178374 -0.018592548 -0.02392591
000180 22 38 60 bc c0 bb 53 bc b7 7e 80 3b 94 d6 c7 3c
       -0.013685258 -0.012923181 0.0039213556 0.024394311
000190 f4 17 b0 bb e7 a7 c1 3c b1 27 d2 bb e6 b0 eb 3a
       -0.005373949 0.023639632 -0.006413423 0.0017981797
0001a0 63 c7 5c 3c 3d 59 14 bc 5b 2d 96 3c 39 46 d1 3b
       0.013475272 -0.009054479 0.018332174 0.006386545
0001b0 45 30 90 bc ab 41 2d 39 00 17 ba bc 8e 61 05 bd
       -0.017601142 0.00016523029 -0.022716045 -0.03256374
0001c0 f2 61 98 bb 7b 60 b6 bc a8 82 5a 3b 46 bd 49 bc
       -0.004650348 -0.022262802 0.0033342037 -0.012313193
0001d0 00 1d 23 3c 53 bd 81 3a 7d 5b c3 bc 5a fd 4e 3c
       0.009955645 0.0009898342 -0.023847336 0.012633646
0001e0 a6 d2 ca bb 60 03 6f bc ee a3 a1 bc 41 e6 5a bc
       -0.006189662 -0.014588207 -0.019731488 -0.013360561
0001f0 2a 91 b7 bb d9 63 c8 bc 33 d7 35 3c 08 66 34 3c
       -0.0056020217 -0.024461674 0.011098671 0.011010654
000200 31 60 c2 3c 10 04 d1 bc 1d 46 49 bc 55 91 a7 3c
       0.023727508 -0.025514632 -0.012284783 0.020455042
000210 4f d2 11 ba 5d b9 41 3a 99 c4 6f 3c c2 e5 d9 3b
       -0.00055626495 0.0007389987 0.014634275 0.0066497037
000220 ae 71 b5 3b 56 8a 39 bc d6 ef 1f 3c d2 93 a3 ba
       0.0055372333 -0.011324486 0.009761771 -0.0012479967
000230 b1 40 7b bc 3b 5a 31 bc 29 fd 22 bc 81 d8 e5 bb
       -0.015335248 -0.010824735 -0.009948053 -0.0070143347
000240 6e 19 c2 bc 20 70 e6 bc 2f 15 38 ba 7c 88 85 3c
       -0.023693766 -0.028129637 -0.00070221996 0.016300432
000250 87 97 87 bc ae 94 80 bc 30 d7 cf bc e9 e9 2a bb
       -0.016551746 -0.015695896 -0.025371164 -0.0026079363
000260 2e ae 17 bc 89 a5 b0 3c ac 4c b7 3c ba 8f 79 bc
       -0.009257836 0.021563308 0.022375427 -0.015232021
000270 95 31 2a bc 16 ee 79 3c 22 d7 a1 bc e8 97 b0 3c
       -0.010387798 0.015254518 -0.019755904 0.02155681
000280 8e c1 8f bc a7 70 09 bc 3a 98 63 3c 16 47 a7 bc
       -0.017548349 -0.008388675 0.013891274 -0.020419639
000290 19 e9 5a 3c c6 17 8c bc 1b 5e c1 3c ec 6b 4d bc
       0.013361239 -0.01710118 0.023604443 -0.012537938
0002a0 71 c1 80 3c a8 51 40 3c 06 05 8c bc 79 8a 9f 3c
       0.01571724 0.011738218 -0.01709224 0.019475209
0002b0 3b d7 59 3c b2 d9 9d bc 98 72 e5 bc cb 3d 0a 3c
       0.013295944 -0.019268844 -0.028008744 0.008437584
0002c0 c0 04 6f 3c 51 08 fb 3b ce 41 11 3c e9 42 cf bc
       0.014588535 0.0076609035 0.008865787 -0.02530046
0002d0 7c 23 83 3c b2 9b a3 3c 9d 46 e8 3c 37 9d 57 3c
       0.016008131 0.019971702 0.028353984 0.0131600415
0002e0 65 76 a3 3c 57 09 0b bc 55 7c 7b 3c 87 1f f1 bb
       0.019953916 -0.0084861135 0.015349467 -0.0073584947
0002f0 f4 67 e3 bc c6 14 d6 bc 08 b4 f5 bb f3 82 8c 3a
       -0.02775953 -0.026132952 -0.007498268 0.0010720178
000300 43 08 8e 3c 81 ed d9 ba a4 34 4c 3c 75 47 b9 3c
       0.017337924 -0.0016626568 0.012463722 0.022617081
000310 96 a3 5a bc b9 8b 2a bc ec f7 93 3c 19 90 b1 3c
       -0.013344666 -0.010409289 0.018062554 0.021675156
000320 63 1c b1 bc 69 55 af 3c 7a 99 00 bc 60 01 97 3c
       -0.021619981 0.021403031 -0.007849092 0.018433273
000330 70 6a 98 bc 66 38 fe 3b 0c 03 51 bc f4 3a cb 3c
       -0.01860544 0.007758188 -0.012757074 0.024808384
000340 8d a3 8b 3c 11 26 9c bc c4 61 3e bc 3d 3d 41 bc
       0.01704576 -0.01906112 -0.011619989 -0.0117943855
000350 e8 8f 39 bc ff 0e 23 bb d5 04 48 bc 23 54 9b bc
       -0.011325814 -0.0024880765 -0.012208183 -0.018961018
000360 96 b4 0a bc 40 0b 84 bc 66 3a b7 bc db 93 45 3c
       -0.008465907 -0.016118646 -0.022366714 0.012059177
000370 ea 77 d9 bc de 56 82 bc e2 3c 93 3b e1 b5 ae bc
       -0.026546437 -0.015910562 0.004493342 -0.021326961
000380 07 39 9f 39 6f b3 14 bc cf 66 7c bc 7f e2 83 3b
       0.00030369332 -0.009075983 -0.015405371 0.004024803
000390 78 d5 82 3c eb f3 a3 bc 55 88 9a 3c 69 fc 96 bc
       0.01597093 -0.02001377 0.018863836 -0.018430905
0003a0 7d 29 ce bc 51 0f c5 39 b9 43 09 b8 71 3f 9e bc
       -0.025166268 0.0003758618 -3.2726417e-05 -0.01931736
0003b0 32 96 25 bc 0f 07 04 bb 2c 06 ad bc 79 be 1e 3d
       -0.01010661 -0.0020145809 -0.021121107 0.038755868
0003c0 6d d7 30 3c 25 71 cf 3c b3 0c 9e 3b e8 84 c4 39
       0.010793549 0.025322506 0.004823291 0.00037483056
0003d0 9f 7c 7c 3b 6e c7 86 ba 8c c1 ed bb f8 a0 d5 b7
       0.0038526428 -0.0010282823 -0.0072557386 -2.5466536e-05
0003e0 a7 ec 99 3c e4 80 43 3c 85 02 76 bc 7a 2d c9 bb
       0.018789602 0.011932585 -0.015015249 -0.0061394544
0003f0 0b 60 fd ba 2e 0d 23 3c cc 99 bd bc d9 3a e3 b9
       -0.0019330991 0.009951873 -0.023144625 -0.0004334066

encoder.fc4.bias f4 [100]
000000 52 5e 15 3d ce 8e f3 3b 65 45 b5 3a 1c 8a 6e bb
       0.036466904 0.007432795 0.0013829885 -0.0036398238
000010 33 96 a6 3b 72 bf c2 bc 1f 4d 14 bc 3f 46 04 3c
       0.005083823 -0.023772929 -0.00905159 0.008073389
000020 5c 76 3d 3c 1c 78 b5 3c 0a bd 31 3d 4a 99 86 bc
       0.011563864 0.022152 0.043393172 -0.016430516
000030 4a 64 be ba 4f 80 87 3c ef 3f 45 3c c0 0f 1b 3d
       -0.0014525738 0.016540674 0.012039169 0.037856817
000040 4c 30 06 3d d6 1f 8d 3b af 31 90 bc 03 2a 2e bc
       0.032760903 0.0043067737 -0.017601816 -0.010630134
000050 12 42 a3 bb 0c 22 ca 3b 35 30 80 3c f0 7c 9f 3c
       -0.0049822414 0.0061686095 0.015647987 0.019468755
000060 f8 f4 bd 3a 0b bc a7 3c 74 de 87 bc 3b e5 43 bc
       0.0014492562 0.020475408 -0.016585566 -0.011956508
000070 d1 fc 61 3c ef 01 12 3c f7 0b 45 3c d3 4f 0d 3c
       0.013793186 0.008911594 0.012026778 0.008624989
000080 85 52 24 bc 68 bd 9f 3c c6 e6 00 bd e8 35 aa bc
       -0.01002944 0.019499496 -0.031470083 -0.020777658
000090 97 ee 5c 3b d1 bc e8 bc 61 cf 02 3c 35 fe 57 3c
       0.0033711547 -0.028410347 0.007984013 0.013183166
0000a0 b6 2c bd bb 53 dd 82 bc 6e de a8 3b 9f 4b 19 bb
       -0.005773152 -0.015974676 0.005153469 -0.002339102
0000b0 5c e3 9c 3c 92 1f 36 3c 0f bb 4f 3c 9c 7b 01 ba
       0.019151382 0.011115925 0.012678876 -0.00049393787
0000c0 e8 2c 5b bc d9 54 dc ba 0c 3c 09 3d 27 e9 2b bc
       -0.013377406 -0.0016809955 0.03350453 -0.0104926
0000d0 56 ff be 3c e3 d8 d1 ba 61 95 b0 3c 04 c3 ed 3c
       0.023315113 -0.0016010072 0.021555604 0.029023655
0000e0 e8 e7 ac 3b f5 b3 8f bc d3 7b 66 bc 06 6a b5 3c
       0.005276669 -0.017541865 -0.014067608 0.022145282
0000f0 98 75 a1 3c 07 4f b8 bc 69 30 7d bb ef 65 69 3d
       0.019709393 -0.02249862 -0.003863359 0.056981977
000100 1a 3d 87 3c ed 99 02 3d b7 fe df 3c 79 f4 8e 3b
       0.016508628 0.031885076 0.027343137 0.0043626395
000110 27 f5 13 3b af 5b 41 bc 66 61 31 3a bd 51 b6 bc
       0.0022576542 -0.011801644 0.00067665277 -0.022255773
000120 cd 0c 6a bb e0 3a 24 bc e9 76 1f 3c a3 e5 23 3d
       -0.0035713196 -0.0100238025 0.00973294 0.04001392
000130 58 5a 01 3c 14 b6 30 3c 08 7a 79 3c 93 0b 7a 3c
       0.007895075 0.010785598 0.015226848 0.015261549
000140 e4 1c a5 3c f0 46 0a bc ab 38 f1 bc ca 5d 7e bc
       0.020155378 -0.008439764 -0.029445967 -0.015525291
000150 df f9 16 3d 16 1c b3 bc ec c9 8c 3c 84 c4 c9 3c
       0.03685939 -0.021863978 0.017186128 0.024629839
000160 ac b0 ce 3c 96 a4 35 3d f0 5d 1b 3c b0 a9 45 3b
       0.025230728 0.044346415 0.009482846 0.0030160956
000170 7c 5c ee ba fa 01 b5 3b 46 a6 c9 3c de 34 55 3c
       -0.0018185521 0.0055239173 0.024615418 0.013013093
000180 39 e7 a6 3c 5f cc c1 3c c0 a0 b5 bb 6a c7 62 bb
       0.020373927 0.023657022 -0.0055428445 -0.0034603723

encoder.fc5.weight f4 [100, 100]
000000 fd 34 57 3d 0a 7a c0 3d 67 70 15 3b 6d 6d 61 3d
       0.052540768 0.09398277 0.0022802593 0.055035997
000010 04 34 f0 3c 12 98 09 bb 14 19 72 3c 4f 4c 90 3d
       0.029321678 -0.0020995182 0.014776487 0.07045805
000020 2f 5a 19 bd 40 07 ac 3d cf 98 65 bd 7f 60 0d bd
       -0.03743952 0.0839982 -0.056053933 -0.034515854
000030 10 c7 b5 bd aa 34 51 bd 5d 1a 30 bd 69 86 a7 bc
       -0.08875859 -0.051075615 -0.042993892 -0.020449834
000040 e7 a7 a8 3d 48 bc 18 3d 98 4d 8c bc 32 48 ad 3d
       0.0823515 0.037288934 -0.017126843 0.08461036
000050 88 be 04 bc 00 44 ac 3c f7 98 7c bd 81 7e 80 3c
       -0.008102067 0.021028519 -0.061669316 0.015685322
000060 27 32 aa 3d 50 de 8f bd db 63 41 bd eb e4 be 3d
       0.08310347 -0.070248246 -0.04721437 0.093210064
000070 21 c3 7a bd d5 7c 25 3d 09 e8 85 bd 07 0f b1 bd
       -0.061221246 0.040402252 -0.06538398 -0.08645444
000080 61 09 97 3d 68 15 45 3c 55 69 2e 3d 52 cf 06 3d
       0.07374836 0.012029029 0.04258092 0.03291256
000090 1a b1 86 3d a7 3b 61 bd 4c 44 24 3d 0f ce 7d bd
       0.06576748 -0.05498853 0.040104195 -0.06196409
0000a0 2e 50 cb bd da 6f a9 bd bd 59 8a 3d 46 90 9f 3c
       -0.099274024 -0.08273287 0.067553975 0.019477975
0000b0 0e 06 3e 3c ef d3 86 bb 92 1c 3c 3d 6f ea 60 3d
       0.011598123 -0.00411462 0.045925684 0.054911073
0000c0 28 e5 05 bd 10 c2 81 3a e7 fe 9c bd f8 e6 ab 3d
       -0.032689244 0.0009899754 -0.07665806 0.08393663
0000d0 d8 33 8d bd 55 65 c8 bb 39 e8 a6 3b 45 ec 29 bd
       -0.06894654 -0.0061155953 0.005093601 -0.04148509
0000e0 1e 75 94 3d 8b f4 24 bd b1 c8 99 bd 53 17 ed 3c
       0.07248901 -0.040272277 -0.07508982 0.028941786
0000f0 44 cf 33 3d 58 5c e5 3c 63 4b 4b bd 31 9d 8a bd
       0.043898836 0.027998134 -0.04963244 -0.06768263
000100 40 4c c5 bc 0b 9e 77 3d b3 19 ad 3c ec fe ee bc
       -0.02408421 0.060453456 0.021130418 -0.02917429
000110 26 b8 c1 bd 58 30 ae 3d bf 5b 55 bd 31 b0 92 bd
       -0.09458952 0.085053146 -0.05208945 -0.07162512
000120 36 54 cd 3c 22 36 30 3c 20 b6 3f bc ed f6 6e bc
       0.025064569 0.010755094 -0.011701137 -0.014585239
000130 28 f4 3b ba db 92 54 3d af f3 aa bd 29 a0 8d 3c
       -0.0007169866 0.051897865 -0.0834726 0.017288284
000140 b4 2b 82 bd 64 8d 98 bd 7d 2e 81 bd 39 fc 24 3b
       -0.06355992 -0.07448843 -0.06307695 0.002517475
000150 69 c4 c0 3d 48 0c c4 3b 67 d8 a8 3c b7 fc 22 3d
       0.09412462 0.0059829094 0.020611001 0.03979179
000160 e9 77 95 bc ea f1 b4 3c b1 a5 32 3d d1 16 a8 3d
       -0.018245654 0.02208801 0.043615047 0.08207477
000170 f5 52 ba 3d 2e 7a ff bc e0 76 d3 3b 4e bb 9d bd
       0.09097854 -0.03118619 0.00645338 -0.07701741
000180 63 97 b4 bc ff 18 a5 3d 02 5d 90 3d 87 98 af 3d
       -0.022044843 0.08061408 0.0704899 0.08574014
000190 8e 93 d0 bb 74 1a 2a 3d 6d 96 9f bd 29 5b f1 3c
       -0.006365246 0.041529134 -0.07792363 0.029462414
0001a0 17 04 a3 3d 36 87 7b bc 7e d3 f3 bc 64 f2 a4 bd
       0.079597645 -0.015352061 -0.029763933 -0.08054045
0001b0 df c5 22 3d cc 69 5d 3d 1b 53 6b 3c 7c 13 c5 3d
       0.039739486 0.054055974 0.014363076 0.09622857
0001c0 5a 5d 5f 3d 4c 1f a2 bd db 75 82 bc d2 33 56 bc
       0.054532386 -0.07916126 -0.015925338 -0.013073878
0001d0 c6 d4 c4 bd c7 f0 b8 3b f5 fe 06 bd 04 8a 6b 3c
       -0.09610896 0.0056439373 -0.03295799 0.014376167
0001e0 8b 25 32 bd 71 78 7d 3d 7f 22 99 bb 71 1a a3 3b
       -0.043492835 0.06188244 -0.0046733017 0.0049775173
0001f0 23 05 a7 bd b3 40 f1 bc 90 0c 2c 3d 88 f9 cd bc
       -0.081552766 -0.029449796 0.042004168 -0.0251434
000200 b8 9b 4b 3d 1b ad 8a 3d 12 1f dd ba 10 63 c0 bb
       0.04970905 0.067712985 -0.0016870222 -0.005871184
000210 c1 cb 2c bc ed c4 d4 bc e3 78 ca bd 83 00 8c 3d
       -0.010546626 -0.025972808 -0.098863386 0.06836035
000220 27 3b 24 3d 7f 6f 89 3d ca 75 37 3b 3b ca 92 bd
       0.040095475 0.06710719 0.0027993792 -0.07167479
000230 8f 46 2f bd 9e 29 d3 bc a8 4c 1e bd 0f 44 2e bd
       -0.0427919 -0.02577668 -0.038647324 -0.042545374
000240 57 1d 26 bd 7f dd 9b bd 82 02 a2 3d dd 52 49 bd
       -0.040555324 -0.076106064 0.079106346 -0.04915129
000250 a6 5a e4 bc 64 69 a7 3c 26 47 03 bd 56 97 f6 3c
       -0.027875256 0.020435996 -0.032050274 0.03010146
000260 ec 2a 25 3d cf 75 2d bd f5 d6 c9 bd 59 7a 68 3d
       0.040324137 -0.04234868 -0.09855453 0.056757305
000270 56 ec 2c 3d 04 53 88 bd c0 fd ad 3d 20 32 55 bd
       0.042217575 -0.06656459 0.084956646 -0.052049756
000280 29 3e 39 bd a9 d5 c2 bc 3a 2e 81 3d 1a 61 b6 3d
       -0.045225296 -0.023783522 0.06307645 0.089052394
000290 c2 0a 82 bc b3 af 3d 3d b3 54 b0 bd 47 46 bb bd
       -0.01587427 0.046310138 -0.08609905 -0.09144264
0002a0 40 0c c6 3c 00 2d 7d bc f8 de 4e 3d 8f 47 d3 3d
       0.024175763 -0.015452623 0.05050561 0.10316383
0002b0 1f 8e 4c 3d 1b 08 c9 bd cf 0d f7 bc c3 7e 7f bd
       0.049940225 -0.09815999 -0.030157952 -0.06237675
0002c0 05 c4 20 bd 0a 35 92 bd a5 20 a4 bd 89 b2 48 3d
       -0.03924944 -0.07139023 -0.08014039 0.04899839
0002d0 97 f2 94 bc 35 1c 2b bd e3 27 93 3c 5e 6f 63 3c
       -0.018182082 -0.041774947 0.017963355 0.0138815325
0002e0 31 ac bb bd 46 8c 15 3d a7 91 53 3d fa f8 bc 3d
       -0.09163702 0.03651073 0.051652577 0.09227176
0002f0 90 79 63 bd af cf e8 ba cb 85 8a 3c 83 c7 1f 3c
       -0.055535853 -0.001776209 0.0169095 0.009752157
000300 2c a8 2f 3b eb cc 97 bd a6 eb b1 3d 43 57 f5 3c
       0.002680312 -0.07412132 0.086875245 0.029948836
000310 e3 a5 b9 bd 20 96 d2 bd bc 87 86 bd 30 e0 55 3c
       -0.090648435 -0.1028254 -0.06568858 0.013053939
000320 90 4e 0b bc 31 5d d9 3d d7 a1 7a 3b 81 c9 af 3d
       -0.0085026175 0.10613478 0.0038243437 0.08583356
000330 ae 9b 20 bd c8 65 f1 bc a4 7b 0f 3d ae c1 ff 3c
       -0.039210968 -0.029467478 0.035030022 0.031220283
000340 f8 d0 b0 3d 7a db 13 3d f6 e9 90 bd 4c b2 e4 bc
       0.086336076 0.03609798 -0.070758745 -0.02791705
000350 e1 f6 ce 3d 52 0c ac 3d bf f1 53 bd 23 71 49 3d
       0.10105682 0.084007874 -0.05174422 0.04918016
000360 2b 14 aa 3d 08 06 ec 3c 1f 97 3c 3c ee 91 62 3d
       0.08304628 0.02881147 0.011510639 0.05531495
000370 56 5a 53 3d 21 4f 2d bd 4a fb 8c 3d 00 46 ac 3d
       0.051599823 -0.04231179 0.06883867 0.08411789
000380 3d 4b ae bd 21 f0 7d bd d8 64 a8 bd f8 a5 0e bd
       -0.08510444 -0.061996583 -0.082223594 -0.03482625
000390 f7 51 94 bd 96 cf a9 3d 5c de a1 bb 33 de 35 3d
       -0.07242196 0.08291547 -0.0049398374 0.04440136
0003a0 de 70 47 3d d6 a6 16 3d 8e 32 12 3c a7 d9 7e bc
       0.048691623 0.0367802 0.008923186 -0.015554822
0003b0 de c0 a2 3d 3f 13 89 3d d2 1d 3d 3d fb 5c 82 bd
       0.07946943 0.06693124 0.046171017 -0.06365391
0003c0 75 e5 b7 3d 71 ee cb 3d fa c5 34 3c 72 cd 14 3d
       0.08979312 0.099575885 0.011033529 0.03632874
0003d0 d9 09 49 bb 2d 71 0c bd ef 9e af bd 7f 49 a5 bd
       -0.0030676036 -0.03428762 -0.08575236 -0.08070659
0003e0 c0 5f c8 bd 7c c3 3f bd bd 4a e2 3b 06 2d be bd
       -0.09783888 -0.046817288 0.006905882 -0.09285931
0003f0 fc 89 12 3d 5b 09 d7 3c 02 de e4 bc cb a5 4b 3d
       0.035776123 0.026249578 -0.027937893 0.04971866

encoder.fc5.bias f4 [100]
000000 8f 95 c0 bc a1 4a 8b bc 0b 78 e5 3d 2e 5c d5 bd
       -0.023508815 -0.01700336 0.11204537 -0.104179725
000010 07 fc 74 bd 92 68 4a bc eb 0b b0 bd e4 70 7b bd
       -0.059810665 -0.012354033 -0.08596023 -0.061386958
000020 ae 7b a7 3d ee 70 eb bd 96 c5 ec 3c d0 86 95 bc
       0.08177887 -0.11496149 0.02890281 -0.01825276
000030 63 b9 e5 bd 15 b2 69 3d ce 9e ce bd 2d 64 48 bd
       -0.11217 0.057054598 -0.10088883 -0.04892366
000040 5c 71 1c bd 75 b7 20 b8 f9 a4 af bd c0 74 88 bd
       -0.038194045 -3.831783e-05 -0.08576388 -0.06662893
000050 4c d3 38 3d 83 84 4c 3d 07 09 43 3d 6c 3c ce 3d
       0.045123383 0.04993106 0.04761603 0.10070118
000060 54 75 ca bd 8c 53 4f 3d 7e f2 d8 bd 9f 26 8a 3c
       -0.0988566 0.050616786 -0.10593127 0.01686412
000070 e6 9d 14 3d 82 d3 94 3d 25 a8 c9 bc c3 33 50 3d
       0.036283396 0.072669044 -0.02461631 0.050830614
000080 9f 0c b9 3c 50 51 80 3d 56 00 9f bd ec c0 ce bd
       0.022589026 0.06265509 -0.07763736 -0.10095391
000090 f3 dd 7f 3d 24 9e 1e ba 28 70 31 3c 66 a1 5f 3d
       0.062467527 -0.00060507865 0.010829963 0.05459728
0000a0 76 b2 9f bc d7 c4 9f bc 8f 6a 86 bd 3b d5 c2 bd
       -0.019494276 -0.01950304 -0.06563293 -0.09513327
0000b0 54 79 fa bc 38 47 e5 bd bf 00 13 bc 9d 3a b8 bd
       -0.030575432 -0.111952245 -0.008972346 -0.089955546
0000c0 e4 c9 37 bd f3 e6 7a bc 35 bf e0 3d 73 e1 9c bd
       -0.044870272 -0.015313852 0.1097397 -0.076601885
0000d0 d3 d4 8d 3c 5a 92 88 bd 76 58 8b bd e0 d0 1f bd
       0.017313397 -0.06668539 -0.06803982 -0.039017558
0000e0 38 b1 ab 3d da 5b 4e 3d d7 22 39 bd 20 e2 ed bd
       0.08383411 0.050380565 -0.04519924 -0.116153955
0000f0 53 bc 2d bd 9f 16 78 3d fc 99 fa bc 2b 09 5a 3d
       -0.042415928 0.06056845 -0.030591004 0.0532314
000100 dd 3c c1 bc ce 3e a0 bc 23 f7 32 3d a0 b0 bd bd
       -0.023588592 -0.019561198 0.04369272 -0.09262204
000110 e8 7b 30 3d 9c d4 b1 3d 07 6f 99 3d ea 2d d8 bd
       0.043086916 0.0868313 0.0749188 -0.105556324
000120 4c f2 86 bd 31 9c d4 3c 35 12 ce bd bf 77 1a bc
       -0.06589183 0.025953384 -0.100620665 -0.009427964
000130 b2 01 63 3d f5 e3 87 3c 96 22 aa bc 55 a8 34 bd
       0.05542154 0.01658819 -0.020768445 -0.044105846
000140 f0 08 6c bd 1e ae 6a 3d 8c 31 54 bd cf b0 b3 3c
       -0.05762571 0.057294957 -0.051805064 0.021934895
000150 15 74 fa bd a7 89 fc bc 73 1e e9 3b fa c3 3c 3d
       -0.12229172 -0.030827357 0.0071142255 0.046085335
000160 c3 83 54 bc 25 1a e7 bd 65 f9 9d 3d be 32 10 bd
       -0.012970868 -0.112842835 0.07713584 -0.03520464
000170 2a f3 e1 bc 57 f1 9e 3d a8 21 e1 bd 60 ab 9a bd
       -0.02758177 0.07760876 -0.109927475 -0.075522184
000180 60 7a 56 bd 87 40 25 bd 50 bc 00 3c 36 fc 8b 3b
       -0.0523628 -0.04034474 0.007857397 0.0042720092
